gru_mnist_model.pth (torch, 647399 bytes, 10 tensors)

gru.weight_ih_l0 f4 [384, 28]
00000000: 7559 873d 554d 353e 1005 293d 3e06 87bd
00000010: f528 82bd 7cbc 77bd 76ed 25bd 4901 ec3c
00000020: b26a 5dbd 4cd2 ba3c 01d8 36bd c354 3ebc
00000030: 792e 573c 9815 963d 7488 bc3c 881a 283e
00000040: a05c e63d a497 e23c 9741 293d 0235 813d
00000050: 3728 abbd 2379 9b3a 1e8d 00be 1e81 8cbd
00000060: 317d 27bd 0d91 3fbe 0b9e 09bd b6cd 153e
00000070: b67c 2ebe b450 eabd 0822 09bd ffdf 893d
00000080: fade 0dbd cc8b d33b 7cc7 c3bc 29a5 9b3b
00000090: d922 843d ac6d ce3b c443 a3bd ec84 c6bd
000000a0: e0f3 68bd 7af1 16be 608b c8bc 0f3f afbc
000000b0: 9eec df3b 2668 cbbd 526e 8cbd a1f7 2f3d
000000c0: e0b4 d63d 1934 c53c bfc5 113e 737d e23d
000000d0: 0c22 4d3e e506 2c3e a3b9 363e 9f06 b53d
000000e0: 9121 a23c 9b88 6c3d 110d 86bd 678d 33bd
000000f0: ac47 59be b159 24be 92b3 c4bd 0899 a3bd
00000100: e8df 0bbe 14b3 6dbe 6953 a1bd c387 13bd
00000110: e3f1 a53d a6ba b73c 002d eebb 00d0 d7bd
00000120: 5dd5 85bd 15b8 a9bc f826 353d 79f6 d63d
00000130: 78b3 2a3d e108 99ba 34e4 0fbe 5285 00bd
00000140: 6ec0 f13c 8848 8c3d ea00 3839 ea79 db3d
00000150: b0a8 3d3c df4c c83b da8e cabd a2cd 21be
00000160: e33c 273d 7de9 efbc 2189 b43c a241 66bd
00000170: c519 efbc 63c8 7fbb 88cf e8bd 63cd 2b3c
00000180: c42e 1d3e 1e44 0e3e 7bac 813d 4ef9 85be
00000190: 3737 d7be cecc 58be 8913 73be 882f e8bd
000001a0: 2e6b 07be 6ee1 66be 610f 63be 6ce0 09be
000001b0: 21b8 02be 8738 42be 307c d1bd 69e5 dc3b
000001c0: 7322 da3d 0786 483e ee24 cf3d de7a ec3b
000001d0: 6e55 dfbd feb1 bdbd 35a1 4bbd 1281 b6ba
000001e0: c4da 5abd 8cd5 80bd bf7c 953d 38e4 343e
000001f0: 831f 223d 6d87 31bb 9670 d23d f869 3d3c
00000200: c0bc 563d 08d8 493d 6403 90bd 421e f3bd
00000210: d0f9 23be 68f0 d9bd 249e b2bb b332 7a3d
00000220: 7ad2 3c3d 736b 1cbd 1d31 b53d 0694 ad3d
00000230: 96b3 e23d a5c4 843c 702f a33e 9b3b c03c
00000240: c1e4 d33d bb66 7f3d c82f 2bbe 2424 10bd
00000250: 580e d93c 873c 87bd c47c 80bb 706f 83be
00000260: d972 7ebe 456d ad3d cef2 b63e 06c9 cd3e
00000270: 2724 603d 061f eabd f834 08be 77c7 b5bd
00000280: 76ce 8dbd 40e5 05b7 529e 7bbd 2bca 313c
00000290: bb4a 7dbc 3a86 a03d 8912 a0bd 9208 edbd
000002a0: 5083 5cbe a84e c3bd f60a 903d 2544 ab3d
000002b0: 2aaf 603e c8e0 a93e 26e4 0a3e 8a5f a83d
000002c0: de25 5a3d bc0e 653d deb2 bc3d b942 b03c
000002d0: 91dc edbd a772 27bd 0660 cc3c 68fe 873d
000002e0: 8511 603d c5ca 60bc 04ee a9bc 8135 04be
000002f0: f4c9 5f3d d7b0 25bd e69b 8fbd 56e6 53bc
00000300: 5752 f83a 171d a4bd ce79 4bbe 04f0 163d
00000310: f807 cdbd bb7c a3bc 9541 83bb d93f 9dbd
00000320: 0d89 86bd 4a22 b5bc 91ba 553d 0fb9 b93d
00000330: e7a5 7e3d 8794 0d3e bae7 04bd 4f5b 8fbc
00000340: 533c bebd c615 98bc 14b9 623c 10cb 9fbb
00000350: c8ca 11be bf4e 4a3b f90b 223d b728 dcbb
00000360: e182 793d 6f0b 07bc b338 e9bd 6b62 96bc
00000370: 5684 3abe ebed 00bd 3c6b 5abd 3347 09be
00000380: 148b 6d3d 359e 133e 27cd 2c3e d2fa a2bd
00000390: cb53 ecbd 6d3e 2cbd 5c98 24bd 5b47 b5bc
000003a0: 294d b3bd 3907 50bd 3b28 aabd cd84 4d3e
000003b0: 954a 223e 2857 2d3e 7bfa ad3d 2c37 763d
000003c0: 9fc5 ac3b cba9 5abb 1d09 3d3d 31a5 f33d
000003d0: bb7f f7bb dbc7 c73c c335 a1bd 2cb9 1fbc
000003e0: b6ee 7a3d bea8 923d a4d5 923b cfe5 3c3e
000003f0: c2d4 3e3e d7b5 ba3e aaf4 2e3e 4803 febb
0.066088594 0.17705281 0.041264594 -0.065929875 -0.06355468 -0.060482487 -0.040509664 0.028809207
-0.05405683 0.022805355 -0.04463959 -0.011616888 0.013133639 0.073283374 0.023014285 0.16416371
0.112481356 0.027660199 0.041322317 0.063089386 -0.0835728 0.0011861663 -0.12553832 -0.06860565
-0.040890876 -0.18707676 -0.033597987 0.14629254 -0.17039761 -0.11441174 -0.03347972 0.06732177
-0.034636475 0.006455874 -0.023898832 0.0047499132 0.06451959 0.006299695 -0.0797191 -0.096933216
-0.056873202 -0.14740553 -0.024480522 -0.021392373 0.006833627 -0.09931974 -0.068569794 0.042960767
0.10483718 0.024072694 0.1423559 0.11059084 0.20032519 0.16799505 0.17844252 0.088391535
0.019791396 0.057747465 -0.06545461 -0.043836024 -0.21218747 -0.1604984 -0.09604563 -0.07988173
-0.13659632 -0.23212844 -0.07877237 -0.036018144 0.08102777 0.022427868 -0.007268548 -0.1053772
-0.065348364 -0.02071766 0.044226617 0.1049623 0.04167506 -0.001167562 -0.14051896 -0.031377144
0.029510703 0.06849772 0.00017547948 0.10716613 0.011575863 0.0061126794 -0.09890528 -0.15801099
0.04082955 -0.02928614 0.022038044 -0.056214936 -0.029187093 -0.0039029352 -0.113677084 0.01048598
0.15349871 0.13893172 0.06331726 -0.26166767 -0.42034313 -0.21171877 -0.23737921 -0.11337191
-0.1322448 -0.22546932 -0.22173835 -0.13464516 -0.12765552 -0.18966876 -0.10228765 0.006741215
0.10651102 0.19582377 0.10114466 0.0072167953 -0.10904966 -0.09262465 -0.049714286 -0.0013923964
-0.053431287 -0.06290731 0.07299184 0.17665184 0.039580833 -0.0027088777 0.1027538 0.011560909
0.0524261 0.04927829 -0.07031897 -0.118710056 -0.16013265 -0.10641557 -0.0054509807 0.061083507
0.046099164 -0.03818841 0.08847258 0.08475499 0.110694095 0.016207049 0.3187213 0.023465922
0.10346366 0.06235383 -0.16717446 -0.035190716 0.026496097 -0.066033415 -0.003921123 -0.25670958
-0.24848498 0.08468107 0.3573212 0.4019243 0.054721978 -0.114316985 -0.13301456 -0.088759355
-0.06924145 -7.980794e-06 -0.061430283 0.010851423 -0.015459712 0.07838102 -0.07816035 -0.115739
-0.21534467 -0.09536487 0.07033341 0.08362607 0.2194182 0.33179307 0.13563594 0.08221348
0.05325877 0.055922255 0.09213804 0.02151619 -0.11614335 -0.040880825 0.024948131 0.06640321
0.054704208 -0.013720219 -0.020743378 -0.12911035 0.054635957 -0.04045185 -0.07012157 -0.012933334
0.0018945438 -0.08013361 -0.19870684 0.03684999 -0.100112855 -0.019956937 -0.0040056207 -0.076781936
-0.06569109 -0.022111077 0.052179877 0.090685 0.062169936 0.1382619 -0.032447554 -0.017499594
-0.0928885 -0.01856507 0.013838071 -0.004876502 -0.14237511 0.003086969 0.0395622 -0.006718721
0.06091583 -0.008242472 -0.11387768 -0.018357476 -0.18214545 -0.031476896 -0.053324923 -0.13406067
0.057993963 0.1441582 0.16875134 -0.079579964 -0.1153942 -0.04205172 -0.040184364 -0.022128752
-0.087549515 -0.050788138 -0.083084546 0.2007019 0.15848763 0.16927779 0.08495041 0.06011121
0.0052725817 -0.0033365365 0.04615127 0.11896742 -0.0075530685 0.02438729 -0.07871582 -0.009748738
0.06126281 0.07161091 0.0044810344 0.1844704 0.18635848 0.36466858 0.1708552 -0.007751856

gru.weight_hh_l0 f4 [384, 128]
00000000: 0317 453d 625b a13d b4c0 8c3c cb4f 6d3d
00000010: eacf 8b3d a9ce cebd c054 0c3b 3ded 9b3c
00000020: fb35 54bb b89f 3c3d 7c78 5abd 82c8 293d
00000030: 5c27 033d 3129 7c3d 93a6 fbbc bb4a 563c
00000040: 243e 51bd fed6 283d 5a4a 053c 41d9 adbd
00000050: 6f97 f53d 3415 5dbd 6ed9 b13c 67ae 5e3d
00000060: e715 1a3e c46c 813d 1e42 b1bd b9c2 a93d
00000070: 75d2 9f3b 37b1 a2bc 3584 a3bc 3d95 7bbd
00000080: 6a28 1bbe 888f 58bd b0df 203b 47cf 9dbc
00000090: eece 193b 6860 efbd 8e20 c93b 68fc a93c
000000a0: 2e1c 49bd 1b25 85bd b625 843d 9a13 803d
000000b0: baaa 043d 607c 143d 3718 9cbd b8be fe3d
000000c0: 3402 f9bd 0087 a8bd 8bfb 013c 64e6 9b3d
000000d0: 7b88 ae3b 9e2e 7ebd 5cb2 89bd 3838 a33d
000000e0: 91f5 e8bd 840a 953d 1f8b 1cbd c5aa 143e
000000f0: e88d d5bb 5c75 9d3d 221f 9bbd fd98 8d3d
00000100: 32b4 913d b383 1f3b 9a8a c83b 41a7 8cbb
00000110: e51d 11be a011 b3bd 70a1 af3d 8b09 62bd
00000120: 1307 0cbd be0a ff3b 1742 debc eebf 443c
00000130: 86cd ecbc 7992 7a3d 13f5 dabc f66c a33d
00000140: de39 bf3d 30e1 7c3d 58bc 89bd 2ab7 5c3d
00000150: f23c d63d 164a d13d d886 5cbb 3951 b63d
00000160: efb5 b93c 451e 653d b637 b2bc 30fa bcbd
00000170: 5766 c83d b774 9e3d 73d9 84bc e1df e93d
00000180: b8a8 1bbe 82b9 1bba 9035 ee3d a8d5 c0bd
00000190: dd49 a9bd 81a0 2bbd 2b4a 333d 1474 acbc
000001a0: ab58 e93c 89ce bfbd d3c7 18bb 3312 473d
000001b0: cd5c d53c eecc 9abd 5899 403e 74d0 a33d
000001c0: ce10 843c 9031 d03d eae4 c8bd 6546 71bd
000001d0: ed25 cebc 0926 b8bd e1e0 f03d 6db3 c0bb
000001e0: d5e3 203c cf96 c73d aff1 95bc a060 d2bd
000001f0: 55c8 fe3d a5cb 93bc 51e4 5d3d b456 b83c
00000200: 91a3 793d 731c e1bc c5db d9bd 48fb 1c3e
00000210: cdd1 64bd fe61 1dbe 28fd e83d b5f7 16be
00000220: 3a91 053e 6ace b53c c5ff 71bd 710c e1bd
00000230: c169 89bc a395 0b3c 9f7e bbbd a0fd e43d
00000240: a093 7f3d 6996 d6bc d2a1 57bd 46af 23be
00000250: f7d3 a03d 0b6e 063d 9522 513e 9694 c43d
00000260: 985b 133e d53f f4bd 1102 babd 49bb e4bd
00000270: f234 99bc 787d c83a c393 7ebd 0363 cdba
00000280: 0948 b1bd 413d e93c f9a7 d7bc 63d8 0d3e
00000290: 12ca 00be 8d1c 34bd 6ad1 b73d 9f63 2b3e
000002a0: 9693 88bd cd99 93bd 57d7 b7bc d709 1e3d
000002b0: 4c0f b6bc 171a e73d 1fbe eb3c 0e93 033e
000002c0: 5703 943d d3dc b0bd a8cf d1bc 9e04 e63d
000002d0: ad34 d4bb e5ed 0abc 3256 a6bc 2ada c53a
000002e0: c151 cb3d 9a00 2f3d ea21 bebd ae6a 943d
000002f0: 89cc 68bd 2e6d 90bd 02b1 703d b2bc 573d
00000300: 02e5 183d 424d 0abe 846d a9bd 81a7 133d
00000310: d8c4 cebd 550c 27be 928c 85bd adc6 873d
00000320: 06a3 b93d d570 aa3d acd1 783d fb71 093d
00000330: 778b 373d 040a 343d a2fc 8a3d bf2e 0e3d
00000340: e6ff af3a 7fbe 8a3d 453f dcbd 2726 8c3d
00000350: 487d 403b 49c4 b3bb 6c6d f13c 167b b03c
00000360: 6a9a 163d c79f f23b cabb 64bd 8ebb e1bb
00000370: 0be9 203d cd51 5a3c 84ce d6bd 0ee3 933d
00000380: 6f07 cfbd 5cc1 8cbd 6200 8cbd 1b5f 3abe
00000390: e0ce 93bd e4cf 7d3d fa08 ae3d 56a9 8dbd
000003a0: 1b8b 13bd d6f3 d13c 57d4 ff3d a00e 64bc
000003b0: 929b 613c 4884 49bb 0fa9 e43d bcbc d03d
000003c0: f058 123e 1493 78bd 1528 abbc 570f 9bbd
000003d0: 8959 e33d 0684 293d dacb d23d 5f2b 9fbb
000003e0: 62b9 073d 7a6d 623d ff15 64bc ae1e 443d
000003f0: 55a4 ac3d 958f d7bd 62f7 983d 8109 193e
0.04811765 0.07878758 0.017181732 0.057937425 0.06826766 -0.10098011 0.002141282 0.019034022
-0.0032380808 0.046050757 -0.05333756 0.041450985 0.032019958 0.06156272 -0.030719077 0.013079341
-0.051084653 0.041220658 0.008135403 -0.084887035 0.11991774 -0.0539753 0.021710124 0.05436554
0.15047418 0.063195735 -0.08655189 0.082890935 0.0048773834 -0.019859893 -0.019960502 -0.06142162
-0.15152135 -0.052871257 0.002454739 -0.019263877 0.0023469287 -0.1168831 0.006137914 0.02075024
-0.04909914 -0.06501218 0.06452505 0.06253739 0.03238938 0.036251426 -0.07621806 0.124387205
-0.12158623 -0.08228874 0.007933508 0.07612303 0.0053263283 -0.062056176 -0.067234725 0.07969707
-0.11374963 0.07277396 -0.038218614 0.14518268 -0.0065171607 0.076884 -0.075742975 0.06913946
0.07114448 0.0024339973 0.006120038 -0.004292399 -0.1417156 -0.08743596 0.08575714 -0.055184882
-0.034186434 0.007783263 -0.027131123 0.01200865 -0.028906595 0.061174843 -0.026728189 0.07979767
0.09337209 0.061738193 -0.06725377 0.053885616 0.10460843 0.10219209 -0.003364971 0.08902211
0.02266976 0.05593707 -0.02175508 -0.09227407 0.09785145 0.07737105 -0.01621697 0.11419655
-0.1520108 -0.00059404236 0.1163131 -0.09415752 -0.082660414 -0.041901115 0.043771904 -0.021051444
0.028484663 -0.09365565 -0.0023312464 0.04860134 0.026045227 -0.075586185 0.18808496 0.07998744
0.016121294 0.10165703 -0.09809287 -0.058905024 -0.025164569 -0.0899163 0.11761642 -0.005880764
0.009819944 0.09745561 -0.01830372 -0.10272336 0.12440554 -0.018041441 0.054172818 0.02250228
0.060947005 -0.027479386 -0.10637621 0.15330231 -0.055864144 -0.15369412 0.11376411 -0.1474293
0.13043681 0.022193152 -0.05908181 -0.10988701 -0.01677406 0.008519563 -0.091550104 0.11181188
0.062396646 -0.026194768 -0.05264456 -0.1598483 0.07852929 0.03281979 0.20423348 0.09598653
0.14390409 -0.119262375 -0.090824254 -0.11168534 -0.018702004 0.0015296182 -0.062152635 -0.0015669767
-0.08656318 0.028471591 -0.026325213 0.13852076 -0.12577084 -0.04397254 0.089754894 0.16737221
-0.06668775 -0.072070695 -0.02244155 0.038583603 -0.022224091 0.11284273 0.02877718 0.12849066
0.072271995 -0.08635869 -0.025611714 0.112313494 -0.006476006 -0.00847957 -0.020304773 0.0015094925
0.09927703 0.042725183 -0.09283812 0.0724691 -0.056835685 -0.070520744 0.058762558 0.05267019
0.037327774 -0.13506034 -0.082728416 0.036048416 -0.10096139 -0.16313298 -0.06520952 0.06629691
0.090642974 0.08322302 0.060746834 0.033555966 0.04481074 0.043954864 0.06786467 0.03471255
0.0013427704 0.067746155 -0.10754255 0.068432145 0.0029371548 -0.0054860455 0.029471122 0.021543067
0.036768354 0.007404301 -0.055843152 -0.0068888133 0.039284747 0.013325167 -0.104886085 0.072210416
-0.1010884 -0.06872818 -0.068360105 -0.18200342 -0.07217193 0.061965838 0.08497806 -0.06917064
-0.036021333 0.025628965 0.124916725 -0.0139195025 0.013770001 -0.0030749012 0.11165058 0.10192248
0.1429174 -0.06068714 -0.020893136 -0.07571285 0.11101062 0.041385673 0.10292788 -0.004857465
0.03313578 0.055280186 -0.01392126 0.04788082 0.08429781 -0.10525433 0.074690595 0.14945032

gru.bias_ih_l0 f4 [384]
00000000: 6575 9c3d 55f6 1b3d f6bd 9dbd af81 20bd
00000010: f72d e7bd dd69 f7bd 15e1 733d 4161 0dbe
00000020: b091 26bd 98d1 4dbd 7ddf a3bd cd42 833d
00000030: 476f 12bb 3d10 5a3d c7c8 9a3c 0efe cf3c
00000040: 617b 89bd 0e51 923d 95d5 02bd 5d8c 5cbd
00000050: efe1 dabd a2a5 a1bd 8009 c4bb 6024 35bc
00000060: 5709 f1bd ec58 753d 6204 cfbc feab 09bd
00000070: 0a2f a33c 7f80 19bd 256a 9b3b e1e9 17be
00000080: 84ff fa3c d6d1 bdbd 4518 9dbd e7ed c7bb
00000090: 1f86 b7bd 24ad 2a3b bfc2 f7bd d495 51bd
000000a0: fe5b 80bc 4c57 e53c 9e39 a0bc f3a7 8bbc
000000b0: 9892 e7bd 780c c53b d900 a5bd 98e6 4f3c
000000c0: fd06 56be 5c8b 8dbd 9a9f c73c c3ca 093d
000000d0: d058 473d 929f a4bd f90e 8b3d 1686 4c3d
000000e0: aa80 bdbc 3a3f 0b3d 7649 393d 4a66 ec3d
000000f0: 6149 03be ef9c 333d 1aec eb39 ca00 27bb
00000100: fe72 4bbd c137 c9bd dbe3 0fbd 2323 d5bd
00000110: 15d5 bcbc 1dee 1cbd 51ed 8c3b d6d0 61bd
00000120: e099 7b3c 0324 0ebd 97ba 02bd 141c 3fbc
00000130: 52e7 8e3d dfa9 27bc ebb7 723c 855a a4bc
00000140: ca9e e23d af3d 97bd 5b6c b6bd f927 d9bd
00000150: 7c92 22be 789b 88bd 952b 74bb 2502 c03d
00000160: f146 48bd c7e9 343c 1228 f1bb 7480 02be
00000170: 51c2 4b3d 0fd3 2b3b 7dfe 00bd 47d7 cb3c
00000180: 5b34 e7bd dfb5 863b 2624 04be f1fb 623d
00000190: e823 2a3d 87a6 a1bd 2e26 ecbc f690 823b
000001a0: df4e 1dbd b09e 673c a3f0 843d f993 cc3d
000001b0: 6131 5f3d 088b 84bc 0731 203d a0da 00bd
000001c0: 41ec e3bd bd90 64bd e26d 003e 5fcc a6ba
000001d0: 6afd 383c 70a9 0d3d d09f 8e3d fc1d e6bc
000001e0: cba0 57bd 6a00 d53c aead 28bd 0ef7 593d
000001f0: 51f8 84bc e192 4ebd 3ec4 57bd 3a6b f5bd
00000200: 5ad1 65bd 8db2 ae3d 89d6 b2bd e9bc a8bd
00000210: 22d0 1c3e 03b3 ccbd 9b5d ef3c 4eba ac3d
00000220: 34cb bebd 00f4 94bd 15ce 80bd 5af1 f2bc
00000230: e37f 263e 873f dfbd 0b39 3e3d 3051 573d
00000240: c957 293e f4e3 553d 494d a0ba 942f c5bd
00000250: c21f 4cbd 38c8 273d 80bb b5bd 2f9f 00be
00000260: 2d18 a8bb 1ce0 82bd 426e 4a3d 8016 5a3d
00000270: 1744 403c c7e7 513d 997e c43d ece9 29bd
00000280: e129 0b3e 3cc5 963d 66cb 313d 13ff 80bd
00000290: 75c6 c7bc 1217 9ebb 8bca cc3b bc2c 9d3d
000002a0: 6d83 fb3d 26a2 f93c 478f e13d 4607 3f3e
000002b0: 07a9 263e b29d 16bd 2c36 e3bd a775 123e
000002c0: 41f0 393e b0ed 103e 0c92 b5bc ff20 bebd
000002d0: 0201 e93d 8537 f9bc b9cd 133c 8e0d 5ebd
000002e0: c7c8 4a3d a2c9 b23d 885b d43d 3bf4 c9bd
000002f0: d93e 8d3d df5d 9aba 6fe5 d3bc 9056 e1bc
00000300: 6a04 813d 762e 223d 65e9 343c 9e52 c83c
00000310: bceb 78bd 2233 383c cb7a 43bc 9a42 e43c
00000320: 85e7 51be 5ca5 de3d 4672 29bc 855a 533d
00000330: 6c1d 3b3e 27a2 2e3d a403 37be fecf 71bd
00000340: 864a 133e 3ce6 e73d b18f e33d 52d1 30bd
00000350: 0688 433e c610 cd3a 8cd2 aabd 39fe df3d
00000360: dfcd 953d 4a9d 873d 716a ef3d 4c5f 8b3c
00000370: 528e cbbd e2b4 193d 12e9 903d 1c5f c9bd
00000380: b4ce 043e b185 f0bd f31a a5bd 3b80 3fbd
00000390: 5984 b1bd d9ac 673d 30a5 6cbd 5430 f9bd
000003a0: 07b6 a03c d07d b13c 0907 bbbd a933 853d
000003b0: d046 c13d 92d0 823b 4a13 f7bd e560 d6bd
000003c0: bb83 9b3c b334 99bd 1785 d33d 1215 e33d
000003d0: e2c4 f3bb c0b8 4dbd b172 123e e1d4 ca3d
000003e0: 1c16 66bd a521 7abd 1886 83bd b49c 8ebd
000003f0: 5bf3 373e 2e78 223e 80f9 aa3d bc3f edba
0.07639579 0.038076717 -0.07702248 -0.039186176 -0.11288064 -0.12080739 0.059540827 -0.1380663
-0.040666282 -0.050248712 -0.080016114 0.064092256 -0.0022344158 0.053238142 0.018894566 0.025389697
-0.06712986 0.07144366 -0.03194197 -0.0538448 -0.10687625 -0.0789292 -0.005982578 -0.011056036
-0.117693596 0.059899256 -0.025270645 -0.03361129 0.01991989 -0.03747606 0.004742878 -0.14835311
0.030639417 -0.09268539 -0.07670645 -0.006101358 -0.089611284 0.0026043141 -0.12097692 -0.051168278
-0.015668865 0.027995728 -0.019558724 -0.017047858 -0.113072574 0.0060134493 -0.08056802 0.012689255
-0.20901103 -0.06911346 0.024368096 0.033640634 0.048668683 -0.08038248 0.06789965 0.04993256
-0.02313264 0.033995844 0.045236073 0.115429476 -0.1282096 0.043850835 0.00044998602 -0.0025482648
-0.049670212 -0.09825087 -0.03512941 -0.104070924 -0.023050824 -0.03831302 0.0043007513 -0.055130802
0.015356511 -0.034702312 -0.031916227 -0.011664409 0.069777146 -0.0102333715 0.014814357 -0.020062694
0.11065443 -0.07384812 -0.08907386 -0.10603327 -0.15876192 -0.06670278 -0.0037257422 0.09375409
-0.04889578 0.011042065 -0.007359513 -0.12744313 0.04974586 0.002621833 -0.0314927 0.024882926
-0.11289283 0.004111036 -0.12904415 0.05541605 0.04153815 -0.07893091 -0.0288268 0.003984566
-0.038405295 0.014136955 0.0649121 0.09989161 0.05449045 -0.016179577 0.039109256 -0.031458497
-0.11129046 -0.055802096 0.12541917 -0.0012725702 0.011290887 0.034585416 0.069640756 -0.02809047
-0.05264358 0.026001174 -0.04118126 0.053214125 -0.016231688 -0.050433043 -0.052677386 -0.119833425
-0.056107856 0.085301496 -0.087323256 -0.08239157 0.15313771 -0.09995081 0.02921944 0.08433972
-0.09316102 -0.07273102 -0.06289307 -0.029656101 0.16259722 -0.10900789 0.04644112 0.05256766
0.16537394 0.052219346 -0.0012230064 -0.096282154 -0.049834974 0.040962428 -0.088736534 -0.12560724
-0.005129835 -0.06390402 0.049421556 0.053244114 0.011734984 0.05124643 0.09594459 -0.04148285
0.13590194 0.07361838 0.043406866 -0.062986515 -0.024386624 -0.0048245275 0.006249731 0.07674548
0.12280927 0.030472826 0.11013656 0.18655118 0.16275416 -0.036771484 -0.11094317 0.14302693
0.18158056 0.1415317 -0.022164367 -0.09283637 0.11377145 -0.030421982 0.009021216 -0.054212146
0.049507882 0.08729865 0.10369021 -0.098610364 0.06896753 -0.0011777243 -0.025866238 -0.027507097
0.0629967 0.03959509 0.011041974 0.024453457 -0.06077169 0.01124266 -0.011931132 0.02786379
-0.20498474 0.108713835 -0.010342186 0.051599998 0.18272942 0.04263511 -0.17872483 -0.059036247
0.14383897 0.113232106 0.11111391 -0.043168373 0.19094858 0.0015645258 -0.0834094 0.10937161
0.073146574 0.066217974 0.11690224 0.017013215 -0.09939255 0.03752602 0.07075705 -0.09832594
0.12969476 -0.117442496 -0.08061781 -0.04675315 -0.086678214 0.056561325 -0.057774723 -0.12167421
0.019618047 0.021666437 -0.09132201 0.06503994 0.094373345 0.0039921487 -0.12064226 -0.104677
0.018983712 -0.07480755 0.10328119 0.11088003 -0.0074392417 -0.05022502 0.14301564 0.09903885
-0.05617343 -0.061067242 -0.06422061 -0.069634825 0.17963926 0.15866157 0.083483696 -0.0018100659

gru.bias_hh_l0 f4 [384]
00000000: 4066 503d e1ee 5bbd 88e4 a4bd 7049 b23d
00000010: b5f4 f5bd 9985 c5bd efdf 9dbd c6a0 b3bc
00000020: 467a 87bd d3f0 8bbd a22a fcbc 759e aa3d
00000030: 341c 25be 70e7 c23d 82f8 87bc c6f9 ffbc
00000040: 66d5 9f3c e054 873c 5045 903d de6c 25bd
00000050: afeb efbc 5df0 31be b1cd 25bd fbe1 6dbd
00000060: a2c0 18be 57d7 9d3d 3592 23bc f1a1 6dbd
00000070: c51b 6dbd 416f 15be 008b 763d 55f8 dbbd
00000080: f9b2 00be 50a2 64bd d582 82bd 8042 cdbc
00000090: 431d c5bd 316c 8abd 4f96 a3ba bc15 54bd
000000a0: 2c69 a9bd b428 ea3c d382 b4bc 4882 aa3d
000000b0: 0b3d 1ebc 5bfe 24bd 9b2f 4cbd 1fbe d43d
000000c0: e488 b3bd 9fca f4bd 5c93 d0bd a0df 033d
000000d0: 10af 7a3c 4a86 9ebd 69ba e03d ed26 023d
000000e0: 5a97 403d 4952 1abd f0ff 54bc ba49 8bbc
000000f0: 4283 02be cd82 c9bd cb89 963d 12d3 b5bd
00000100: 26ef 3e3d 158c aabd b51a 9eba 47b0 1dbe
00000110: c452 b23d b17a 63bd 092a 1a3b 79a6 95bc
00000120: d2d5 76bd 9bbc c4bd 3f72 4cbc 2463 44bd
00000130: 1c47 61bd 10d5 48bd 6b4e 0ebd 0496 86bd
00000140: 3d8a 3f3e 6693 d33b db3a 7ebd 222b 823d
00000150: ba0d b9bd 8d8d c8bd 2929 fa3d 710b 3f3c
00000160: ae71 69bd dbd1 bdbd 3268 693d 8093 1ebc
00000170: b760 82ba 6d9e a4bd ee26 ccbd 69cd 1cbd
00000180: 58ee f8bd 61ad f83b 50ac d8bd 284e 2e3d
00000190: c092 4cbd e9e7 c7bd eb37 14bd 6d60 0f3d
000001a0: ce9c c2bd 8b57 07bd 0980 b0bd 760d 12bd
000001b0: 0e5e 993c 1d45 64bd 0db8 7a3d 6b2b 18bd
000001c0: a09c df3c 8a14 973b ac2a 223a 6bd9 803d
000001d0: c6b1 ae3d 00e2 ff3d 3276 993d 410b 863d
000001e0: 0987 573d 1560 833d e4e0 09bd 4bab 25bb
000001f0: 1470 1b3d 1368 a33b 8671 babd 0018 f6bc
00000200: 7f0a b5bd 585c 303e f5aa 20bd 1320 7cbd
00000210: 8307 1bbc 5ddb 95bd 3719 b6bc c006 ef3d
00000220: a5e9 06be cd8a a7bc 8147 9c3d eb61 d03d
00000230: 8813 5a3e 705d d43c e6b1 cbbc df0d e63d
00000240: 9f22 803e 5db0 363d c947 84bc 0ed9 03be
00000250: e78b 723c d2c6 063e e773 1ebe 866d 01bd
00000260: 7284 133c 00ce 8abd 547e 80bd 216d a33d
00000270: 5309 ddbd b8fb ae3c 2a7e a6bc 7dd9 adbd
00000280: 66d7 423e ec83 9ebc 2553 7e3d 424c 76bd
00000290: 5934 f3bc a94e aebb 8697 cd3d b8eb 173e
000002a0: 8fe4 9f3c 9c54 24bd 1ef6 823c 7da5 b03d
000002b0: 6cbb 063e 673f f13d b962 9bbd c961 803d
000002c0: ea7d a63d a060 023e 3424 8bbd 1f31 f5bd
000002d0: ddec bf3d 9d01 c93d a9c0 de3c a12b cabc
000002e0: 28a8 c03d a329 143e b8f3 873d 1356 ecbd
000002f0: 287c ab3c 9f89 f93d ec64 9bbd 5f57 5b3d
00000300: eb3d ebbc 8d37 13bb ed55 a9bc 4623 983d
00000310: 7d08 b7bd 8821 2d3c 793b 483d 21cb ca3b
00000320: 5655 05bd 16a8 243e 8af4 da3d 987f 7cbd
00000330: e8fc 2b3e 0cea f83d 697d a6bd 4600 b4bd
00000340: 3f60 f33b e9c6 f03d ddf4 2c3e d875 f43b
00000350: 249f 313d d197 9dbd e9b5 b3bc 9c7c 1f3e
00000360: 8354 273d 3847 8b3d a017 cc3d 8acc 673d
00000370: 70a0 9cbd b789 403d 50b3 0e3d 4593 a9bd
00000380: dd57 0bbc f999 0abe 37b3 50bd e275 37bc
00000390: 037a 93bc 7839 3a3e a658 303d a1a5 53bd
000003a0: 1ce0 f7bc 886e 0e3e ddcb 73bd 03a1 f13c
000003b0: 4a48 a2bd 3050 073e ba66 17be fcf6 31be
000003c0: 3dda 003c b1c3 1dba ca7f 163e 3161 a93c
000003d0: f294 d03c d0dc 483d a742 253e 4f85 bf3d
000003e0: b4bc b5bb fbe3 e03a f9e7 52bd d7f2 c93c
000003f0: 8fab de3d 15ec 143c 37cc 7bbd 910d 0d3e
0.050878763 -0.05369461 -0.080514014 0.08705413 -0.12009565 -0.09644622 -0.077087276 -0.021927249
-0.06615119 -0.06833043 -0.030782048 0.083310045 -0.1612404 0.095167994 -0.01659799 -0.031247031
0.019510936 0.016519964 0.0704447 -0.040387027 -0.029287187 -0.17376848 -0.040479366 -0.05807684
-0.14917234 0.077070884 -0.009983589 -0.058015767 -0.05788781 -0.14593221 0.060191154 -0.10740725
-0.12568273 -0.055818856 -0.063726105 -0.025056124 -0.09624722 -0.06758917 -0.0012480709 -0.05177854
-0.08272013 0.028583862 -0.022035038 0.083256304 -0.009658108 -0.040281635 -0.049850088 0.10387825
-0.08766344 -0.119527094 -0.101843566 0.032195687 0.015300527 -0.07740457 0.10973055 0.031775404
0.04701934 -0.03767613 -0.013000473 -0.017002929 -0.12745383 -0.098394014 0.07350501 -0.08878149
0.04661479 -0.083275 -0.0012062403 -0.15399276 0.087071925 -0.05553693 0.002352359 -0.018267857
-0.06026251 -0.09606286 -0.01247841 -0.04794611 -0.054999456 -0.049031317 -0.034742754 -0.06571582
0.18705077 0.0064567802 -0.062067848 0.06355883 -0.09035821 -0.09792624 0.12214882 0.011660443
-0.05699318 -0.092685424 0.056984134 -0.009678721 -0.0009947036 -0.0803803 -0.09968363 -0.038281832
-0.121548355 0.0075890278 -0.10579741 0.042555004 -0.04994464 -0.0976103 -0.03618614 0.03500407
-0.09502564 -0.03304247 -0.08618171 -0.03565737 0.018721607 -0.055729974 0.06121068 -0.03715078
0.027296364 0.0046106027 0.0006186168 0.06291469 0.08530001 0.12494278 0.07493247 0.06545115
0.052619014 0.064148106 -0.033661738 -0.00252791 0.037948683 0.004986772 -0.09103684 -0.030040741
-0.088398926 0.17222726 -0.039225537 -0.061554026 -0.00946224 -0.07317231 -0.02222882 0.11671209
-0.13175066 -0.020451928 0.07630826 0.10174926 0.21296513 0.02592346 -0.024865102 0.112331145
0.25026414 0.044601787 -0.016147511 -0.12875769 0.014803863 0.13161781 -0.154739 -0.03159859
0.009003745 -0.06777573 -0.06274095 0.07979799 -0.10792794 0.021360263 -0.020323832 -0.08488748
0.1902748 -0.019350015 0.06209101 -0.06013132 -0.029688047 -0.0053194356 0.100386664 0.14836013
0.019518165 -0.040119752 0.015986498 0.086253144 0.13157433 0.11779671 -0.07587189 0.06268651
0.08129485 0.12732172 -0.067940146 -0.1197226 0.0937135 0.09814761 0.027191477 -0.024679007
0.09407073 0.14469008 0.066382825 -0.11539855 0.020933226 0.12184452 -0.07587609 0.05355012
-0.028716048 -0.002246353 -0.020670855 0.07428603 -0.08937166 0.0105670765 0.048884843 0.0061887656
-0.032552086 0.16079745 0.106911734 -0.06164512 0.16795695 0.12154016 -0.08129389 -0.08789115
0.007427245 0.11756689 0.16890283 0.007460337 0.04336466 -0.07694972 -0.021937327 0.15574878
0.04085208 0.06800693 0.099654436 0.056591548 -0.076477885 0.047006335 0.034838974 -0.082800426
-0.008504835 -0.13535298 -0.050952163 -0.011197539 -0.018002516 0.18185985 0.04305329 -0.051671628
-0.03025823 0.13909352 -0.05952059 0.029495722 -0.07923944 0.13214183 -0.14785281 -0.17379373
0.007864532 -0.0006018235 0.14697185 0.020676227 0.025461648 0.04903871 0.16138707 0.093515985
-0.005546177 0.0017157787 -0.051490758 0.024651928 0.10872566 0.0090894895 -0.06147405 0.13774706

gru.weight_ih_l1 f4 [384, 128]
00000000: 9f79 c93d 3942 753c 9123 053d f84f 003e
00000010: 0360 5d3d 3c15 4d3e ca50 a5bd c661 d3bd
00000020: 37d7 a93c 171c 9cbd a38a febd 44bd 853d
00000030: 7dde c2bd 07e7 f4bd 6f27 f23d 003c 1c3e
00000040: eaf2 d3bd b2ea 0dbe 12d4 30bd ade7 e23d
00000050: 18d0 823c 8e55 1dbc 914c 8b3d 0a6e 053e
00000060: 6703 f13d bece 5bbc 14cc 39be 6d18 e63d
00000070: 18b4 1b3d a7c1 0e3e c70d 54be 9ae6 4fbe
00000080: 402d 89bd 9f67 e13c 28a4 f13c 5d78 953c
00000090: 8971 33bd 0918 67bc 96c1 383d 602c 6ebd
000000a0: 8c71 3cbe a0f9 c7bd 7176 10bd 3191 f23d
000000b0: 7368 fa3d c4be a5bc 7770 8ebe 8e41 29bd
000000c0: b524 253d 62ec 00bd f75d 163d 5430 b6be
000000d0: 6b27 963e c4c4 ebba 64de 803d 2966 963d
000000e0: c4d7 31bc 81b0 923c dd35 7cba 1169 373e
000000f0: 46cb a03d acbc ae3c 69f2 6fbd 8fd7 e4bc
00000100: 18fd 973d 6e5c 7bbe 0235 48bd 75cc 7ebe
00000110: b19d 66bc 4499 50bd 46d3 ad3b 2f9c ecbd
00000120: 9181 8dbb 458f e5bb 02a9 50be 2b47 52be
00000130: 654a 8d3d ae63 f7bd 0a6a 143e 19e4 243e
00000140: fb19 8dbd 0302 ba3d 0479 db3d 24d2 3abc
00000150: f97b 76bd 803e df3c 2fc2 753e ac33 0d3e
00000160: 7b86 46be 7ddd c3bd d34a c8bc 615a b63d
00000170: a758 10bd f7bf acbd 903a b8bd 61cc 0a3e
00000180: e1d8 b5bd e59e d93c ce76 1b3d 2e09 3ebe
00000190: 4e44 9abd b655 003c e161 1f3d d38b 893e
000001a0: 989f 39be 62c1 2fbd b5b2 01bd 5689 a93d
000001b0: c008 0c3c b29b 8fbe 44f6 bebd 0a52 283e
000001c0: 8358 873e ff1d 003e 8678 fdbd a756 653d
000001d0: 01bf 91bd fede 26bd 6357 febd 5f93 81bd
000001e0: dea1 bebd 6860 003e 19d8 acbd b5c3 c43d
000001f0: 0d30 523e 4fbd b6bd cdef f73d 3683 543e
00000200: b119 4f3d 9afb 4dbe 077c 103e 2e21 523b
00000210: 4b9a b43b c684 9bbd e587 1b3c 8ffa c53c
00000220: 3a44 b63d 6315 923d 45a7 02be a03e 8d3d
00000230: 6da4 c5bc 5fa9 663d f44f b43c a66a 5ebd
00000240: 8e82 d8bd 3d98 1a3e 3717 d43d 83eb f1bc
00000250: 21d2 183e 75d7 673c d2be 303e 0b31 05be
00000260: 63cf 783d be88 7c3d ee28 efbb b470 a33d
00000270: ef0a 7d3d c2af 123b 2775 26be aa3c d8bd
00000280: f516 043d 3a08 8abe 8727 27be 7829 6b3d
00000290: 1445 453d 92fa 2a3d 4bfd 253c a8b1 14be
000002a0: 715a 033c 309d 8d3d 0cb0 e23d 7f10 b03d
000002b0: bcbb 00be 861b 80ba def1 a23d 9589 87bd
000002c0: fa87 463e ec2c 67bd e76e 9abd 2c69 51bd
000002d0: 5f3c aebd 5764 1ebd 8993 e93b ac5e a4bd
000002e0: 2d82 873c a833 b83d 5d76 df3d 587e b7bd
000002f0: 8d7a 923d 28d2 46bd 0217 05bc 95db 02bd
00000300: 250d 893c e2de 33be 7924 623c b8a0 6cbd
00000310: f70a 4e3e c2f5 9cbd 5a84 acbd b9d5 0d3c
00000320: 21af 9b3d 7483 da3d 0296 d0bd 6a47 48be
00000330: ac96 413e 1201 09bc e831 92be 2686 933d
00000340: 1e5d ec3a 13c8 edbc 4e5f bf3c a2f9 813b
00000350: 951d 6dbc 7de2 623e 8bc1 553d 82e6 e6bd
00000360: c518 21be 2ab6 11be b247 8d3d b7fd c2bd
00000370: b0fb 62bc 3465 503c 2b7a 18bb 61d5 073e
00000380: 328c 713d 3cbe 0bbe e4a3 5e3d f119 3abe
00000390: 820b d13c 66f8 b63d 17bc 0a3e bb57 34be
000003a0: bcd7 5a3d 047b ffbb 29c9 f5bc f5f6 0bbe
000003b0: c46b 0fbd a624 f7bd 9aaa 253d 95e2 573d
000003c0: dfe5 6b3e 1f9f e93d 43f0 0ebd 6b3c acbc
000003d0: a5a8 1b3d 3b9e 3cbd a333 66bd 01ce 28be
000003e0: 7221 41be b2ee 053e f32f 88be 0fcc 973c
000003f0: 43ee 643d 3b17 f53d 9499 c93d bafe c53d
0.098376505 0.014969402 0.032504622 0.12530506 0.054046642 0.20027632 -0.0807205 -0.10321383
0.020732505 -0.07622545 -0.124287866 0.0653024 -0.095150925 -0.119581275 0.118239276 0.15257263
-0.103490666 -0.1385906 -0.043170996 0.11079345 0.015968367 -0.009602917 0.06801713 0.13030258
0.11768227 -0.01341599 -0.18144256 0.112351276 0.038013548 0.1394106 -0.2070838 -0.20302811
-0.06698084 0.02751523 0.029497221 0.01824587 -0.043809447 -0.0141048515 0.045106493 -0.058147788
-0.1840269 -0.09764409 -0.035269205 0.11844099 0.12226953 -0.020232566 -0.2782018 -0.041322283
0.04031821 -0.031475432 0.036710706 -0.35583746 0.2932695 -0.0017987718 0.06292418 0.07343704
-0.010854665 0.01790643 -0.00096210634 0.17911173 0.07851271 0.0213302 -0.05858079 -0.027934818
0.07421321 -0.24546978 -0.048878677 -0.24882682 -0.0140756825 -0.050927415 0.005304727 -0.11553227
-0.004318424 -0.0070056044 -0.20376971 -0.20534961 0.06898955 -0.12079559 0.14493576 0.16102637
-0.06889721 0.09082415 0.10716441 -0.0114026405 -0.060176823 0.027251482 0.23999856 0.13789243
-0.19387238 -0.0956373 -0.024449741 0.08903957 -0.035240795 -0.08435052 -0.08995545 0.13554527
-0.08879257 0.026565025 0.037955098 -0.1855819 -0.07532559 0.007832935 0.038911704 0.2686449
-0.18127286 -0.042909034 -0.03166457 0.08278148 0.008547008 -0.28048474 -0.09324315 0.16437545
0.26434717 0.12511443 -0.12376504 0.05599084 -0.07116509 -0.040740006 -0.124190114 -0.06326937
-0.093082175 0.12536776 -0.08439655 0.09607641 0.20526142 -0.089228265 0.12106285 0.20753178
0.05056161 -0.2011551 0.14109813 0.0032063234 0.005511557 -0.07593684 0.009492849 0.024167327
0.08899732 0.071329854 -0.12759121 0.068967104 -0.024126256 0.05631387 0.02201078 -0.054300927
-0.10571776 0.15097137 0.103559904 -0.029531246 0.14923908 0.01415049 0.17260292 -0.1300699
0.060744654 0.061653845 -0.0072985804 0.07980481 0.061778005 0.0022382592 -0.16255628 -0.10558446
0.032248456 -0.269594 -0.16323672 0.057412595 0.04816158 0.04174287 0.0101311905 -0.14520895
0.008017168 0.06914747 0.110687345 0.085968964 -0.12571615 -0.0009773828 0.07956289 -0.066180386
0.19387808 -0.056439325 -0.07540684 -0.05112569 -0.085076086 -0.03866991 0.0071281833 -0.0802587
0.016541565 0.08994228 0.10911248 -0.08959645 0.07152281 -0.048540264 -0.008123161 -0.03194769
0.0167299 -0.17565492 0.013802641 -0.05777046 0.2012137 -0.07664062 -0.084236816 0.0086569125
0.076017626 0.10669604 -0.10184862 -0.19558492 0.18905133 -0.008362072 -0.285537 0.07203321
0.0018033122 -0.029026067 0.023360875 0.003966526 -0.014472385 0.22156711 0.05218653 -0.112744346
-0.15732105 -0.14229646 0.068984404 -0.095210485 -0.013853952 0.012719441 -0.0023266177 0.13264991
0.05897159 -0.13646787 0.054355517 -0.18173958 0.025518183 0.08934097 0.13548313 -0.17611592
0.053428397 -0.007796647 -0.030003147 -0.13668425 -0.035014883 -0.12067537 0.0404459 0.05270632
0.23036908 0.11407303 -0.0348971 -0.021024903 0.03800263 -0.046049338 -0.05620159 -0.16484834
-0.18860415 0.13079336 -0.26599082 0.01852992 0.055891287 0.119673215 0.09843746 0.09667726

gru.weight_hh_l1 f4 [384, 128]
00000000: 7751 99bd 6c2f 81be 9381 023e ef23 29bd
00000010: 507e 4bbd 1221 f5bd 7eda e33d 1ae3 b5bd
00000020: 4370 00bd 6b1e 853d 1ef9 483d 0609 d33d
00000030: a6e0 4fbc e6e6 df3d 6af6 7d3d 119a df3d
00000040: ce9f 263d 0e93 823d 84fb d33b 7832 283b
00000050: 0ebf 473c 612a 893d c8bf d2bc c800 b2bd
00000060: 8872 a7bd b57a b3bc e057 35be 8913 3a3d
00000070: 5c00 8a3c 7fc5 30bd ecbd b7bd e6de f33c
00000080: 138b b43c 687b 91bc 8d7d 20be a8fe fdbd
00000090: 1b8a fcbd d891 e13d ca4d 263e c620 fabc
000000a0: fff8 433d 92ad 0ebe 7869 8c3d 6ac5 d33c
000000b0: 6a87 08bb 0a76 2bbd 89cd 4cbe 5a1f a2bb
000000c0: 6786 e7bd 36fe df3d 70a7 e0bd c97c 4abc
000000d0: 2657 a13d fd98 1a3c 408f 7f3d 1042 a13d
000000e0: da48 333d 15e6 62bb 6049 61bd d050 b53c
000000f0: 2729 77bd 2532 62bd 43c8 213d 3217 873b
00000100: d470 6c3d 8511 c3bd c6b2 bb3d 8135 0fbd
00000110: 7605 833c dd3c 1b3e 7297 a4bb bfe7 91bd
00000120: 9def 90bd 3469 583e 2bbe 8f3d a57f 183e
00000130: a317 9d3c 9cac ff3c bd20 e7bc e04c 8e3c
00000140: bdef b4bd b18d febd 26ff 65bd ff05 05bd
00000150: 5847 593d 74fc a83d 3188 afbd bc07 efbd
00000160: c29a 42be d8a8 8bbd 6310 e9bd 1f39 823d
00000170: e8d5 663d 881f 973b 5386 5c3d 8297 8d3d
00000180: cc32 4c3d e551 edbc b741 483d 501c 413e
00000190: 077f 563c ce02 063c d8cc 753d 256a d2bd
000001a0: ce35 e83c 3cbe 893b b929 3d3e 5c59 9d3c
000001b0: 18c2 5a3c 43e9 19be 7a3c 7f3a 6ae1 3d3d
000001c0: 750e 293d 9c31 1ab9 5a23 21bc dd8b c93c
000001d0: 21f3 32bc 4a32 f7bd 8bd8 a93d 4ca9 93bd
000001e0: 82ca 7abe ea52 893c ec9f 9fbd b8e2 f83d
000001f0: a891 163e 5c13 193d a6ee 2d3d 4142 b2bd
00000200: 1022 233e ff53 1ebe fa66 5bbe d44d c43d
00000210: 6a7d b6bd 7413 c33d f5d2 6bbe edae 783e
00000220: 06c5 9dbd 78a3 083e b420 a23d f97e 0f3b
00000230: 1b2e d43c a409 0fbe 2b2b 363e 0cdc fa3d
00000240: f1e1 8ebc de8e 943d 2e22 063e ccf0 e93d
00000250: 2bbc 5d3d e34d 0cbe 0fb2 9cbd c93c 8e3d
00000260: c639 413d 6969 8e3d 5e9e 723c de71 473e
00000270: 16e0 a43d 9f6e 51bd 9ebe 8e3d 7cef 123c
00000280: 2528 3fbe 7d59 74bd 32de bebd 8535 f6bd
00000290: d8cb 11bc 3b6b 43bd 8623 973c 9737 d43d
000002a0: cc52 65bd f0b7 8ebb 7bc1 70bc c71f 9ebd
000002b0: c646 6e3d a5e7 5f3e f424 903d ceb4 e8bc
000002c0: 27d1 813d ce77 bc3d 25e0 bfba 2dbe 40be
000002d0: 7a02 ad3d 76a5 773d d9c3 123c 2e23 90bc
000002e0: 93ff 623b ae81 223d de7e 213e 84ae 9cbd
000002f0: 3962 10bc 6078 bc3d 0cec 5d3e 92e5 e839
00000300: 2a5b 7abd 39a9 033d 7d72 76bd d95e 6cbd
00000310: 7a79 4cbd c386 2cbe 769a 10be 29f1 0b3e
00000320: 2dae 6c3d fbd3 6dbd bdde c2bd 6328 86bd
00000330: 118f 44bd 0ca2 68bd 13b9 05be e8d6 893d
00000340: 012a 6f3c e4db a53c 9dea 713c 1034 f43d
00000350: ae87 48ba 255d 87bc b963 ba3c e7a2 85bd
00000360: 2a22 dcbc c5b7 2cbe b7ad 303d 5c9d f73c
00000370: 6f82 0c3d 274b 303d 3e02 313e 4d7d 1ebd
00000380: daed 2c3b 8aad d73d 6f2c 1a3c d34d bebd
00000390: 21e1 d2bd a04a 20be dca5 09be ac36 2cbc
000003a0: 476c b83d 5c5a 1f3e 3159 1c3d 0b1f 883d
000003b0: 4129 38bc 6168 e83c dbd7 473e a4ae 4bbd
000003c0: c286 ba3d 6689 90bd 1eb5 15bb cee8 323c
000003d0: fd0d 8d3d 15c9 c63d 2be3 d4bc b574 cebd
000003e0: 39a1 9f3b 72ea 2cbd f6d8 acbd af88 85bd
000003f0: a804 e6bc 0dc7 08bb 3df3 3a3b 8ea4 29be
-0.07486241 -0.25231493 0.12744741 -0.041294035 -0.049681008 -0.11969198 0.111256585 -0.08881207
-0.03135706 0.064999424 0.0490657 0.103044555 -0.012687838 0.10932712 0.062002577 0.10918058
0.040679745 0.06375705 0.006469192 0.0025664847 0.012191547 0.06697536 -0.025726214 -0.08691555
-0.08176142 -0.021909097 -0.17709303 0.045428786 0.016845874 -0.043157097 -0.089717716 0.029769372
0.022038972 -0.01775904 -0.15672894 -0.124020875 -0.12331029 0.110141456 0.16240612 -0.030533206
0.047844883 -0.139334 0.06856054 0.02585097 -0.0020832666 -0.041860618 -0.2000028 -0.004947585
-0.11304932 0.10937159 -0.10969436 -0.012358853 0.0787795 0.009435889 0.062392473 0.078739285
0.04377065 -0.0034622003 -0.055001616 0.022133261 -0.06034198 -0.055223603 0.039497625 0.004122638
0.05772479 -0.09524826 0.09164958 -0.034963135 0.015993815 0.15159936 -0.0050229365 -0.0712428
-0.070769526 0.21133882 0.070186935 0.14892443 0.01917631 0.031210236 -0.028213853 0.017370641
-0.08834789 -0.12429369 -0.05615153 -0.03247642 0.053046554 0.082512766 -0.08570898 -0.11671397
-0.19004348 -0.06819314 -0.11380079 0.06358551 0.05635634 0.004611913 0.05383904 0.069136634
0.04985313 -0.028969714 0.048890796 0.18858457 0.013091809 0.00817938 0.060009807 -0.10274152
0.028345969 0.004203586 0.18472947 0.019207649 0.01335194 -0.15030389 0.000973649 0.04635755
0.041273553 -0.00014705065 -0.009835089 0.024602825 -0.010922224 -0.12070139 0.082932554 -0.07210025
-0.24491313 0.01676317 -0.077941746 0.12152618 0.14704001 0.03737198 0.04246392 -0.08704043
0.15930963 -0.1546173 -0.21426001 0.09585157 -0.089106396 0.09525195 -0.23029692 0.24285479
-0.07703595 0.13343608 0.07916394 0.002189575 0.025900891 -0.13968521 0.17789905 0.12249002
-0.017441722 0.07253812 0.13098976 0.114228815 0.05413453 -0.13701586 -0.076511495 0.069451876
0.047174238 0.06953699 0.0148082655 0.1947703 0.080505535 -0.051130887 0.06969951 0.00896823
-0.18667658 -0.059655655 -0.09319724 -0.12021927 -0.008898698 -0.047709685 0.018449556 0.103621654
-0.055987164 -0.004355423 -0.014694567 -0.07720905 0.058172964 0.21865709 0.07038298 -0.028406527
0.06338721 0.092025384 -0.0014638944 -0.18822546 0.08447738 0.06046053 0.0089578265 -0.0175949
0.0034637197 0.039674453 0.15771052 -0.07650474 -0.008812481 0.09202647 0.21672076 0.00044421531
-0.061122097 0.032143805 -0.06016778 -0.05770764 -0.049920537 -0.16848283 -0.14121422 0.13666214
0.057783294 -0.05806349 -0.0951514 -0.06550672 -0.047988 -0.056795165 -0.13058881 0.06730443
0.014597417 0.020246454 0.014765409 0.11923993 -0.00076496124 -0.016523907 0.02275263 -0.06525212
-0.02687176 -0.16866978 0.043134417 0.030226402 0.03430408 0.04304042 0.17286012 -0.038693715
0.0026386888 0.10531147 0.009410008 -0.092921875 -0.10296846 -0.15653467 -0.13442177 -0.010511082
0.09005027 0.15561813 0.038170997 0.06646546 -0.011240304 0.028370084 0.19515936 -0.049727097
0.09107734 -0.07057457 -0.002284355 0.010919763 0.06887434 0.09706322 -0.025987228 -0.10080854
0.004871514 -0.042215772 -0.084398195 -0.06520211 -0.028078392 -0.0020870597 0.002852633 -0.16566679

gru.bias_ih_l1 f4 [384]
00000000: cde2 eb3d fff3 3c3b 9869 293e 1cd6 dc3d
00000010: b833 ec3d 6d22 933d dabc 103e 7088 fa3c
00000020: 318d 2fbc 0c12 b13d b304 6bbd 6735 993d
00000030: af2a 4d3d bae6 4a3e 94bb 113d ca8f 783d
00000040: fd9e 5b3c 7637 c93c 1c46 e13d 98fd 213d
00000050: 98c4 913d 1ee9 ccbb d63c ca3d 0900 7fbc
00000060: e15c 6c3d 302b 023d 3d90 503d 24be 423e
00000070: 56ad d93d 02be 623d 7ad0 043d e61b a7bd
00000080: dd86 483e 96e7 803d 05eb 19bd e6ac 873d
00000090: 22b5 b73d c14d 333e 1d83 983d 2236 ef3d
000000a0: 04b6 613d bb23 833d 1d0e 013e 2cd4 6a3d
000000b0: d404 6c3d b05f 493e f366 843d 4ece fc3c
000000c0: c71b e53d 5cc3 eb3c 8d2f 653d e3a1 013e
000000d0: 2d1c 163e add4 c5bd cdb1 d33d 363d 943d
000000e0: 406d 083e e9c2 2ebb 0921 3e3e 1d9f 28bd
000000f0: ea9c 2e3c 0f7f e93d d813 2c3e 4886 773c
00000100: 2b11 0a3e 2960 9f3c 6ad9 dd3d 3eb1 cc3c
00000110: 8163 833c 8e6e 573e 70cc 66bb 71c2 703c
00000120: 06f5 d83d 0fd6 a83d 6b44 863d 57f9 1e3e
00000130: d26e bd3d a692 e83d 0ab4 ac3d 9dca a13b
00000140: c2de 823b ffda 203e 236b 833d 9194 da3d
00000150: faca e53d 9bb3 d8bc 222d fb3d caa1 ee3c
00000160: 6d68 f53d f817 9e3a 515b 953d e121 633c
00000170: c939 223d 62a4 04bd 5f24 f33c b62d 1f3c
00000180: 678b 23bc e46f 2dbb 3fcf 003e 9921 923d
00000190: 2b60 ec3d 35bf 8a3d 1c50 303d 5f0f c43d
000001a0: 0fc5 893d 2992 30bd 6483 e23d 4f36 f63c
000001b0: 79cf 20bd 0f74 31bc 793b 5c3d 9926 2c3d
000001c0: fc9d b43b f31b 393d e0ad 95bc 8d63 4c3d
000001d0: 7ae1 4ebc 520a 90bc f3cc 3b3e aa6b f03d
000001e0: ca45 813d d3c4 683d b09b e53d 7b54 b73d
000001f0: 32c0 9fbb e430 553d 4f85 843d 2ee7 39bc
00000200: e8cd cb3b dd8e d63d de25 6abc 19f8 8d3d
00000210: 0f22 443d 2344 da3d d0c5 133e 2346 693e
00000220: 6e2d 703d bacd b53c 2ab8 973d 3153 933d
00000230: 8d6b 0b3e e0cf 343d 2006 d33c 0448 2c3e
00000240: 38b6 223e da5b c13b 46cd fb3a 36fb 6dbd
00000250: 6dd6 863e 2943 ce3d f04a 963d a55e a23d
00000260: 6a90 34bd 07a6 d9bc 3791 b53d 8fd4 df3d
00000270: 7a8a 55bc ac0e fd3c 1f85 b43c 1f97 323e
00000280: b9a0 233e 6371 243d bc65 bf3d 672e b03d
00000290: 2ab4 a1bd a361 0f3e c632 863d 67ff dd3d
000002a0: e47d 263d 2c14 323e 1a71 27bd 9e02 dd3d
000002b0: 7794 ce3a 456a d13c c531 9c3d 3582 143e
000002c0: 473d 773d 0858 db3d 8b3d 4ebd 7677 083d
000002d0: f4d3 f9bc dd2d 6f3e ca93 70bd 64cc 173e
000002e0: b620 e73d 75eb 003e 9f94 0d3e a9fa 1bbe
000002f0: fd08 8fbd 1242 3a3e 567b 073e 1860 25bd
00000300: cc5f 0f3e a7f5 033e b82b ccba 1364 203d
00000310: 30bc 803c 9ff1 0f3d 2e91 993c dde9 823e
00000320: 3edb c6bb 61c0 58bd 0a0f fc3c 9d84 d33d
00000330: 76c6 f13c 5c72 d9bc 57fb 5dbb c5db cdbd
00000340: ae63 7f3d 2809 ef3c 2beb 103d 1ae1 21bd
00000350: 2279 863d dfbf 283d a4dc c63d 218d 6abb
00000360: 1194 413d 589a 2f3e 152b adbd 8097 aa3d
00000370: 1bad c2bc 9893 8e3d 1df4 863e e426 4f3d
00000380: d2c9 4bbc bff3 6c3d 8b7c 3b3d ace8 613e
00000390: ba2e 033d 39be 873d 06c6 ff3d 37d1 44bc
000003a0: c465 403e ba82 fc3b 85c5 883d d7c7 863c
000003b0: d1be e63d e789 173e ea16 c23d db9f 753e
000003c0: 9a92 fe3d 8f5d b03d b586 023e e9b9 b83d
000003d0: 463a 1c3e b420 4d3e aba9 a9bb ea37 383d
000003e0: 9505 6e3d a1d6 4d3e 9ae3 333e fdc2 ba3c
000003f0: ac6a 0fbd 4710 533e 4901 f8bc 498b ad3d
0.11517868 0.0028831956 0.16544187 0.107830256 0.11533302 0.071843006 0.14134541 0.030582637
-0.010714815 0.0864602 -0.05737753 0.07480889 0.050089534 0.19814578 0.03557928 0.060684003
0.013404605 0.024562579 0.109997004 0.039548486 0.071175754 -0.0062533757 0.09874885 -0.015563973
0.057705764 0.031779468 0.050918806 0.19017845 0.10628764 0.055356987 0.03242538 -0.08159618
0.19582696 0.062941715 -0.037577648 0.06624775 0.08970095 0.1751013 0.07446883 0.11680247
0.055105224 0.064032994 0.1260304 0.05733125 0.057621792 0.19665408 0.064649485 0.030860092
0.11186939 0.028779678 0.05595355 0.12659411 0.14659186 -0.09659705 0.10336647 0.072382376
0.13322926 -0.0026666468 0.1856729 -0.041167367 0.010657528 0.11401188 0.16804445 0.015107699
0.13483112 0.019455032 0.10832484 0.02498686 0.016038658 0.21038267 -0.003521707 0.014694796
0.105936095 0.082439534 0.065560184 0.15524803 0.09249653 0.11356096 0.08432777 0.0049374835
0.00399384 0.1570854 0.06416919 0.10672868 0.11220355 -0.02645283 0.12264468 0.029129881
0.11982808 0.0012061587 0.07292808 0.013863058 0.03960589 -0.03238333 0.029680429 0.009715488
-0.009981967 -0.0026464397 0.12579058 0.071353145 0.1154178 0.06774751 0.04304515 0.09573244
0.06727039 -0.04310814 0.11060217 0.030055193 -0.03926036 -0.010830893 0.053767655 0.042028997
0.0055119973 0.04519267 -0.018271387 0.049899627 -0.012627 -0.017583046 0.183399 0.11739285
0.06312139 0.05682833 0.11211336 0.0895166 -0.0048752064 0.05204858 0.06470739 -0.011346621
0.0062196143 0.10476468 -0.014291255 0.069320865 0.047884043 0.10657527 0.14430928 0.22780661
0.058637075 0.022192825 0.074081734 0.07193602 0.13615246 0.044143558 0.025759757 0.16824347
0.15889823 0.005900842 0.0019210957 -0.0581009 0.2633547 0.100714035 0.07338512 0.07928208
-0.044083036 -0.026568426 0.08865588 0.10929214 -0.013033504 0.030890785 0.022036133 0.1744046
0.1597928 0.040147197 0.09345576 0.086026005 -0.07895692 0.14002089 0.06552653 0.1083973
0.040647402 0.17390507 -0.040879346 0.10791515 0.0015760799 0.025563369 0.0762668 0.14502795
0.060361173 0.1071015 -0.05035166 0.03331705 -0.030496575 0.23357339 -0.058734693 0.14824063
0.11285536 0.1258982 0.13826226 -0.15232338 -0.06984136 0.18189266 0.13230643 -0.040374845
0.14001387 0.12886678 -0.0015576994 0.03915794 0.015714735 0.035142537 0.018745985 0.2556905
-0.006068616 -0.05291784 0.03076889 0.10328028 0.029513579 -0.026543789 -0.0033871734 -0.10051683
0.06235092 0.02917917 0.035380524 -0.039521314 0.06566073 0.041198608 0.097100526 -0.0035789686
0.047260348 0.17148721 -0.08455483 0.083296776 -0.023764184 0.06961745 0.2635812 0.0505742
-0.012438254 0.057849642 0.04577307 0.22061414 0.032026984 0.06628079 0.12488942 -0.012012771
0.1878882 0.0077060135 0.06678299 0.016452713 0.11266864 0.147987 0.09477027 0.23986761
0.12430306 0.08611595 0.12746699 0.090198345 0.15256605 0.20032007 -0.0051776967 0.0449752
0.058110792 0.20101406 0.17567292 0.022798056 -0.03501384 0.20611678 -0.03027405 0.08473832

gru.bias_hh_l1 f4 [384]
00000000: d4d6 84bc 6b7a 3abc a8e8 5c3d cb77 b93d
00000010: 2d07 333d e991 6c3d 6488 ef3d 667f e73d
00000020: 911e cabd 2449 e13d 2373 bcbd 5e37 a8bc
00000030: bdbf 9f3d 580a d13d 5d7c 9cbd 4cd9 613c
00000040: 584b d03d 415c d93d 5173 ef3d 9408 f2bd
00000050: aed8 1fbd 9f38 8c3b ab16 9abc 93a3 cc3d
00000060: 7171 ad3d b86e 223c c320 083e a296 1c3e
00000070: 3afc 453e b35c a73d e60d 0c3e 8189 0bbd
00000080: 9cdd db3d f87b a43d e510 b03d e506 12bd
00000090: eacd 543d fc9e 143e 93eb d03d 162c cc3d
000000a0: fa15 283e 0ed7 ad3d 2068 c83d 6b97 76bd
000000b0: 3afa 9b3d 5b02 2d3e 111c 343e 3bb7 d63d
000000c0: 35f4 953d 21ad 073d f8cd 643c d16f d03d
000000d0: 0d2d 4a3e c6d2 c2bd 291c aa3d b854 94bd
000000e0: 5ea4 cd3d 573e bfbc 7de6 4f3d bc6f 793c
000000f0: 649c 1f3e b104 4abd 7185 373e 065f ea3c
00000100: 7d49 bd3d 0b1b 86bd 0fe9 043e 542a 1fbc
00000110: 8937 2b3d 29ef 383e c866 1d3d 7cc6 ca3d
00000120: 5b7c e53c d57c b03d 0455 183e 6677 9d3d
00000130: 6689 f43d 455e e83d 35a2 763d c4db b4bc
00000140: 6009 f43d fe9e ee3d b53e bebd 750a b03d
00000150: d9d2 033e a751 f93d b8c6 0f3e 1416 27bc
00000160: 423a 623d f3fa 923d 9121 eb3c 258d 6fbd
00000170: 8d54 8dbd 5331 173d c9d1 963d 1776 143e
00000180: 0bf8 993d b3a0 203d 6e7d 013e cf59 253e
00000190: 6111 8d3d 2b36 fc3c 7f6b 093e 1310 8a3c
000001a0: fa0c 3f3d df88 fa3c b6da cf3d 09a9 c53d
000001b0: 19d7 1abd bcce 10bd 2d69 d1bc 6687 583d
000001c0: c2bf 023e 55eb 2bbd 25cb c93d 2c01 edbc
000001d0: 3260 d63d 3ff3 cebc d899 3b3e 8560 1a3e
000001e0: 3cb7 e2bc f5e7 16bc eea0 1fbd 3e93 713d
000001f0: d7a7 7e3c 93e0 303d 3139 bb3a 0e65 e53d
00000200: 1037 0f3e 8d66 403d a810 84bc 1131 153e
00000210: 94a5 84bc 218a f13d 2fdb 323e 87ba 0a3e
00000220: a94e ae3d 571f 543d f184 eb3d e01c 153e
00000230: 8f9d c13d ceab ba3d 56d9 02bc 0682 d03d
00000240: 90bd b73d a634 05bd 5df9 bc3d d959 3fbd
00000250: bb55 7c3e 2d7a fa3c 1b8f 913d a21c c43d
00000260: a240 1e3d c940 af3d 7cf7 0f3e 5d48 4f3d
00000270: 3d9b e2bc 391a f53d e642 db3c 6b81 e63d
00000280: 29ab 623e 96aa d13d d7e9 f0bc b313 9c3d
00000290: c448 8cbc 20ab d23d dfc1 843c 52d1 bf3d
000002a0: f674 80bd dd0a 723e cc4f 3cbd b816 7a3d
000002b0: 1d6e acbd 441b b93d d36d 253e 42d2 2f3e
000002c0: b828 033e 4418 abbc 6039 c0bd 3437 183e
000002d0: 6792 d03c 9d2a d33d f4ab d8bc 0e19 bc3d
000002e0: 59a4 673d f676 123e dc5c c33d bd39 cfbd
000002f0: 98b7 98bd 0fe2 b73d 59d9 083e 488e b7bd
00000300: a1ea bc3d e878 613d f845 f93d 49c4 423e
00000310: 83e0 26bd 1716 423c 6971 e33d d5ae 673e
00000320: fc34 bf3c b6a7 4f3d d2f1 99bb 6bdb ccbc
00000330: fe95 95bb 3232 27bc 8361 933d 31e4 5a3b
00000340: 1fd7 993d e867 a73c 07b2 ad3d 1963 143d
00000350: 6874 c23d cbfa 94bc dbd2 9a3b 2078 b83d
00000360: c98e 9c3d 76e1 023e 3f71 73bc 7a4b 053c
00000370: 8757 d63a ed7c 523d a874 483e 4ad2 683d
00000380: bce9 d7bc c807 de3d 32e0 b8bc 58b6 3a3e
00000390: 89d3 e43d 76b5 d23d d30c 863e 9f00 17bd
000003a0: f032 293e b50e b03d a568 4abc 843b 103e
000003b0: 5dad 203e d94a 3b3e 9d7f e93d 1ecd aa3e
000003c0: facb e7bc 9edf 0b3e 0e07 d73c 05b4 533e
000003d0: 305c eabb 39aa 793e 3bdc 1e3d 3339 373e
000003e0: 6915 1a3d e364 cc3d 914c 263d f769 053c
000003f0: 48cb 43bd ff63 463e 078b 073d 6a81 e83d
-0.01621572 -0.011381726 0.053932816 0.09056052 0.043708015 0.05775634 0.11695936 0.11303596
-0.09869111 0.110002786 -0.09201648 -0.020534214 0.07800243 0.10207051 -0.07640908 0.013784718
0.10170621 0.10613299 0.11691917 -0.118180424 -0.039025 0.0042792107 -0.018809637 0.09992137
0.08468903 0.009914093 0.13293748 0.15291837 0.19334498 0.08171978 0.13677177 -0.03406668
0.10735628 0.08031458 0.085969724 -0.035651106 0.051954187 0.14513773 0.10201182 0.09969346
0.16414633 0.08488284 0.09785485 -0.060202997 0.07616086 0.1689543 0.17588831 0.10484167
0.073219694 0.033124093 0.013965122 0.10177577 0.19743748 -0.09512858 0.083061524 -0.07242721
0.10041116 -0.023345156 0.05075692 0.015224393 0.15587002 -0.04932088 0.17921998 0.028609764
0.092425324 -0.06548127 0.1297953 -0.009714682 0.04180101 0.18059982 0.038428098 0.09901139
0.028013399 0.0861756 0.14876181 0.07688789 0.11940269 0.113461055 0.060213286 -0.022077449
0.11915851 0.11651419 -0.09289304 0.085957445 0.12873401 0.12173777 0.14040649 -0.010198135
0.05523134 0.07176771 0.02870253 -0.058484215 -0.069008924 0.036912274 0.07364232 0.14498173
0.075180136 0.039215755 0.12645504 0.1614754 0.068880804 0.030787548 0.13419913 0.016853368
0.046643235 0.030582843 0.10149138 0.096513815 -0.03780279 -0.035353407 -0.025562847 0.0528635
0.12768462 -0.041972477 0.098532 -0.028931223 0.104675665 -0.025262473 0.18320405 0.15075882
-0.027675264 -0.009210576 -0.038971834 0.05897831 0.015542946 0.04318292 0.0014284012 0.11200915
0.13985848 0.0469728 -0.016121224 0.14569499 -0.016192235 0.11793924 0.17466424 0.13547717
0.08511097 0.0517877 0.11499966 0.14561796 0.0945388 0.091148004 -0.007986387 0.1018105
0.08971703 -0.032520913 0.0922725 -0.046716545 0.24642079 0.030575836 0.07107373 0.09575774
0.038635857 0.08557279 0.14059252 0.05060612 -0.027661914 0.11967892 0.026765298 0.11255153
0.22135605 0.10237615 -0.029408379 0.07620945 -0.017124541 0.10286546 0.016205726 0.093660966
-0.062723085 0.23636957 -0.045974538 0.061056823 -0.0841944 0.09038404 0.16155176 0.1717005
0.12808502 -0.020885594 -0.093859434 0.14864808 0.025460435 0.10310862 -0.026449181 0.09184466
0.05655322 0.14303192 0.09539196 -0.101184346 -0.07456893 0.08978664 0.13364162 -0.08962685
0.092244394 0.055046946 0.121715486 0.1902019 -0.040741455 0.011846087 0.11105616 0.22625287
0.023340695 0.05069705 -0.0046980167 -0.02500697 -0.0045649996 -0.010204839 0.07196333 0.0033400173
0.07511734 0.020435289 0.08481222 0.03622732 0.09494859 -0.018185994 0.004724843 0.09007287
0.076444216 0.12781319 -0.014858543 0.008135671 0.001635299 0.05138867 0.19575751 0.056841172
-0.02635657 0.10841328 -0.022567842 0.18233621 0.1117316 0.10288517 0.2618166 -0.036865827
0.16523337 0.08596555 -0.012354051 0.14085203 0.15691133 0.18290271 0.114012934 0.33359617
-0.028295506 0.13659522 0.026248481 0.20674141 -0.007152103 0.24381341 0.038784247 0.17892914
0.037618075 0.0998018 0.040600363 0.00814294 -0.047801286 0.19374083 0.03309157 0.11352809
